CTTIT_PROJECT/mnist_autoencoder_d2.pth (torch, 545853 bytes, 14 tensors)

encoder.0.weight f4 [16, 1, 3, 3]
000000 e0 e9 56 bb 84 ae b6 bc 29 93 b8 3d 95 df 9d 3e
       -0.003279321 -0.022300012 0.090124436 0.30834642
000010 25 0b e5 be 14 74 78 3e 6e 09 85 3e d3 cd 9f be
       -0.44735065 0.2426303 0.25983757 -0.3121172
000020 f5 79 71 3d c1 21 87 3e bd bd 04 3d 1d 57 9b bf
       0.058954198 0.2639294 0.03240751 -1.213596
000030 ce ff c1 3e 08 6b 9e 3c 39 8a 14 bf 45 18 51 be
       0.37890476 0.019338146 -0.5802341 -0.20419414
000040 a9 65 91 bf a7 42 20 be 75 6f 96 be ce fd 11 3f
       -1.1359149 -0.15650426 -0.2938191 0.570279
000050 c2 2e 09 3f 3c f3 82 bf 72 c3 25 bd 80 4d d1 bd
       0.5358697 -1.0230479 -0.040469594 -0.1021986
000060 69 60 e4 be 9d a9 64 bf e9 f2 2e bf 43 4d af be
       -0.44604805 -0.8932131 -0.683394 -0.34238634
000070 4b cf f5 bc 71 4b 83 be 5c b9 80 bd d9 53 01 3f
       -0.030006072 -0.25643495 -0.062853545 0.50518566
000080 3b 2a f8 3c d8 0b 12 3e fc 62 f7 3e cc 46 7c 3e
       0.030293575 0.1426233 0.48317707 0.24636382
000090 cc 3b 8e be e4 4b 9f 3d 5c 81 3b be 4b 91 c7 be
       -0.27779996 0.07778147 -0.18311065 -0.38978037
0000a0 1e 6e 95 3e cd a4 d4 bc 97 83 b9 bf b3 a5 32 bf
       0.29185575 -0.02595749 -1.4493283 -0.69784087
0000b0 00 0e 8c bf d2 3b cb 3c 1c 5a 6b 3e a3 e9 5c bd
       -1.0941772 0.024808798 0.22983593 -0.05393375
0000c0 72 94 f6 3e 0a ac 00 3f f2 f0 95 3e 19 6e 3f bd
       0.4816013 0.5026251 0.2928539 -0.046735857
0000d0 f5 98 92 3c 32 2e cd 3c a9 ee b2 3e a4 e0 86 3e
       0.017895201 0.025046442 0.34947708 0.26343262
0000e0 21 b5 97 be 38 1e 00 3f af 04 db 3d 1d 52 54 bf
       -0.29630378 0.5004611 0.10694253 -0.82937795
0000f0 76 0c 0b 3e c7 f4 1e 3e c4 2f 9c be e0 8c 99 3d
       0.13578972 0.15523063 -0.30505192 0.07497573
000100 1f 80 67 3e 7a b5 0c 3f ac c5 31 be 01 6f b3 3e
       0.22607468 0.5496441 -0.17360562 0.35045627
000110 20 53 99 3e 18 74 21 bf ad c6 16 3e 0a df 7d bd
       0.29946232 -0.6306777 0.14724226 -0.061980285
000120 ea 6d 3f 3e 24 5d 9d be da 77 0f bf 3e 52 0e 3f
       0.18694273 -0.30735123 -0.56042254 0.5559424
000130 0b 5c 89 3e 49 85 46 be be bc e1 3e 16 f2 76 bd
       0.26828036 -0.19386782 0.4408931 -0.060289465
000140 46 48 b5 3c fa 18 13 3f f0 5a db 3e d0 c3 f1 3e
       0.02212919 0.57459986 0.42842817 0.47219706
000150 9e 2f bf 3e 38 bf dc 3d 4e 08 ec be b4 f0 7c bf
       0.37341017 0.107786596 -0.46100086 -0.98804784
000160 6f 99 2c bf f8 0a d4 be f9 19 20 bf 0c db 91 be
       -0.6742162 -0.41414618 -0.6253963 -0.28487432
000170 c6 05 cd 3e ce 86 b5 be 0f 1a 53 3e 80 0e 07 3f
       0.40043467 -0.3545441 0.2061541 0.527565
000180 bd 52 5e 3d cc bc 42 3e d1 8a 34 3e 0b 4d ad be
       0.054278124 0.19017333 0.1763108 -0.33847842
000190 b4 5c 57 bf 9f f9 1e be ac 74 87 3e 62 3b 50 be
       -0.8412583 -0.1552491 0.264562 -0.20335153
0001a0 74 2e 9f be 12 5c 37 3f ef 19 1c 3f 16 22 e3 3d
       -0.31090128 0.71624863 0.6097707 0.11090486
0001b0 68 8d 53 3d b4 75 4a bb e3 d5 3a bf e4 64 38 3e
       0.051648527 -0.003089291 -0.72982615 0.18007237
0001c0 78 55 f4 3c 90 d4 9f 3e 46 a7 81 be 9c b6 46 3d
       0.02982591 0.3121686 -0.25322932 0.048513994
0001d0 86 36 ad 3e 37 d2 ed 3e b9 d6 d8 3e 59 c7 97 bd
       0.3383066 0.46449444 0.4235132 -0.074110694
0001e0 c2 40 19 be 44 cd 8d bd f1 bf 9b bd 3e db f3 3d
       -0.1496611 -0.06923917 -0.07604969 0.119070515
0001f0 5d e5 12 3d 02 cf 4a 3d 62 68 85 be 97 c9 32 3e
       0.03586327 0.049513824 -0.260562 0.17459713
000200 4b 50 cf be 85 96 a3 3e ce 67 34 3f 41 d2 a3 3e
       -0.40490946 0.31950775 0.70470893 0.31996349
000210 b0 2e 00 bf 9f de fc be 85 89 37 be 62 b1 bd be
       -0.5007124 -0.49388596 -0.17923553 -0.37049395
000220 22 98 b5 3e 7c c0 79 3e 77 a4 05 bd e0 50 84 3e
       0.3546763 0.24389833 -0.03262755 0.25842953
000230 30 cf 03 3e e9 97 58 3e 91 d2 f9 3d 33 5b d3 be
       0.12872005 0.21151699 0.121983655 -0.41280517

encoder.0.bias f4 [16]
000000 e8 9c 77 3c 93 95 b7 3e 38 9d 85 3e c8 5d f4 ba
       0.015113093 0.35856304 0.2609651 -0.0018643672
000010 16 53 ae 3e 49 61 28 be d7 c8 6b 3d 63 f8 79 3c
       0.34047765 -0.16443361 0.057564583 0.015256974
000020 a6 28 84 bb 95 0e c4 3d 05 8a 33 ba e3 5c 57 3d
       -0.004033166 0.09573094 -0.00068488746 0.052578818
000030 d2 33 22 bc d7 00 83 3b f6 d1 68 3d 63 8e 35 be
       -0.00990005 0.003997903 0.05684086 -0.17730097

encoder.2.weight f4 [32, 16, 3, 3]
000000 96 50 51 bd af 89 77 be bd 0e 4c be 33 0b 37 3d
       -0.051102243 -0.24173616 -0.19927497 0.044688415
000010 25 0f 58 3d ef d4 38 3d 8a 5b 7d be 30 ef 5a bd
       0.052748818 0.045124944 -0.2474195 -0.053450763
000020 4d cf 8a bb da 0c 1f be b1 73 17 be bd 01 d0 3c
       -0.004236138 -0.15532246 -0.14790227 0.025391454
000030 41 04 b8 be 30 f8 60 be e0 e6 03 be fd f9 43 be
       -0.35940745 -0.21969676 -0.1288104 -0.19138332
000040 d1 ef 02 bd f5 11 74 be d9 27 d5 bd 97 7d 3b bd
       -0.031966988 -0.23834975 -0.10407991 -0.04577407
000050 c1 94 b7 3d 6d 52 7e 3e 03 86 cb 3e 57 53 46 3e
       0.089639194 0.2483613 0.3975068 0.19367729
000060 7c 5b 29 3e ab cc 95 3e e1 8a 3a 3e 78 ad 0f 3e
       0.16538805 0.29257712 0.1821704 0.14031017
000070 0f 7f 2f 3e 9e 84 b0 3d a9 3d 9b 3d 7a ab 3b 3e
       0.17138313 0.08619045 0.0758012 0.18327132
000080 3d 42 28 3e 94 e1 a2 be 40 9c 19 be 7a c1 50 be
       0.16431518 -0.31812727 -0.15001011 -0.20386305
000090 df 63 47 be 6f a0 5b 3d f5 0e c2 3c f8 50 06 be
       -0.19471692 0.0536198 0.023688773 -0.13116825
0000a0 9f 90 86 3d 54 54 d1 3c 9a ee 20 3d 62 25 0a 3e
       0.06570553 0.025552906 0.03929005 0.13490823
0000b0 be e7 b3 3d b4 a0 0d 3e 9b 34 52 bd d0 c3 7e be
       0.08784436 0.13830835 -0.0513197 -0.24879384
0000c0 ed 7c fd 3d ec a7 0b 3e 31 64 a2 3e 25 fa 64 be
       0.12377343 0.13638276 0.31717065 -0.22361048
0000d0 8b 23 08 be 54 c4 af 3c ac cd c6 be 60 2a bc be
       -0.13294809 0.021455921 -0.3882879 -0.3675108
0000e0 1e 76 3f be 61 c6 34 be e0 e5 71 be 2c 9e 26 be
       -0.18697402 -0.176538 -0.23622847 -0.16271275
0000f0 ba ff b6 bd 77 15 14 be cb d3 e2 bc c1 58 33 be
       -0.08935495 -0.14461313 -0.027688881 -0.17514326
000100 e9 4f d8 be a9 a7 b1 be 32 11 03 3e 98 a0 89 3e
       -0.42248467 -0.34698227 0.12799528 0.26880336
000110 15 dd 60 3e ba ca 02 3d 74 19 06 3e 23 64 7b 3e
       0.21959336 0.031931616 0.13095647 0.24549918
000120 f4 c6 8f 3d 08 18 5b 3d 64 d4 a6 bd bf d1 c4 3d
       0.07020369 0.053489715 -0.08145979 0.096103184
000130 70 b1 26 3e bd d3 87 3d b3 10 b9 be 6e 8a ca bd
       0.16278625 0.06632183 -0.36145553 -0.098896846
000140 dc c5 60 bd d1 b0 92 bd a1 dd 05 be 2a a7 f1 3d
       -0.054876193 -0.07162631 -0.13072826 0.11799462
000150 03 af 17 3e 47 1c e6 3d 58 0c 25 3d 33 2d 36 3d
       0.14812855 0.11235862 0.040294975 0.0444767
000160 0a 42 21 3e ea 40 82 3d 48 34 ad bd e2 c2 1c be
       0.15747848 0.063600376 -0.084572375 -0.15308717
000170 ff ef 30 be 30 62 bd be 01 e4 a4 be 05 68 61 be
       -0.17279051 -0.36988974 -0.32205203 -0.22012337
000180 13 cd 4b be f9 5f 90 be d4 56 20 be 29 6c 42 3e
       -0.19902448 -0.2819822 -0.15658122 0.18986572
000190 35 16 a4 3e da d2 b6 3e ea de 01 3f 01 87 be 3e
       0.32048193 0.35707742 0.50730765 0.37212375
0001a0 4e 70 83 3e db 28 9c 3d 60 00 43 3e b1 69 8e 3d
       0.2567162 0.0762498 0.19043112 0.06953753
0001b0 40 26 03 3e 98 c5 0d 3e 43 15 af bc 77 6e f4 3d
       0.1280756 0.13844907 -0.021372443 0.11935132
0001c0 fe 21 53 3e a5 b4 c3 3e fe 57 08 3e 8d 29 d4 3d
       0.20618436 0.38223758 0.13314816 0.10359488
0001d0 08 8b df 3c 5e 96 3a bd 70 ba ff bd 97 d3 2e be
       0.027287975 -0.045553558 -0.12486732 -0.17072903
0001e0 51 ae 24 3e 43 fe 31 3e 6d 2a 03 3e 25 3f 2f be
       0.16082121 0.1738215 0.12809153 -0.17113931
0001f0 a5 52 33 bd 9a a5 e8 bc fa c9 88 3e 1c 59 b3 3e
       -0.043779988 -0.028399277 0.26716596 0.35028923
000200 d0 39 83 3c 5d 41 21 3e 6d 5e 35 3f 1b 47 e9 3e
       0.016018778 0.1574759 0.7084721 0.45562062
000210 d8 0a c8 3d 86 61 7f 3e 83 64 6d 3e b8 09 eb 3b
       0.09767693 0.24939546 0.23182873 0.0071727894
000220 99 71 8d be 2a eb 39 be ac 17 05 be 16 63 dd 3c
       -0.2762573 -0.18156114 -0.12997311 0.027024787
000230 3f 4f c5 3c ae 0c bd bc a2 b7 fe bd b9 31 db bd
       0.024085639 -0.023077335 -0.12437369 -0.10702843
000240 fa 88 33 be a4 0c 3b be fc cf 4f be da c9 f0 be
       -0.17532721 -0.18266541 -0.20294183 -0.47029
000250 c9 46 91 be 01 43 b6 3c b6 9f a4 be 88 29 00 3e
       -0.28374317 0.022248747 -0.321531 0.12515843
000260 77 21 55 3e c9 c0 f5 3d c2 21 be 3e 48 95 cc 3d
       0.20813547 0.119996615 0.3713513 0.09989411
000270 ad b1 6d bd b7 a2 bf 3d 04 a9 3e bd 92 e2 ac bd
       -0.058030773 0.09357207 -0.046547905 -0.08441652
000280 45 5c 40 be 6e 61 88 be 4d c5 65 3e a3 28 84 3d
       -0.18785198 -0.26636833 0.22438546 0.06453063
000290 b0 10 ce 3a 48 ea 64 3d 06 77 8b be 32 48 22 be
       0.0015721526 0.05588749 -0.27239245 -0.15847853
0002a0 60 ba 9d bd f1 a4 23 3e 6e 0f 57 3e d2 8a b3 be
       -0.07701564 0.15980889 0.2100198 -0.3506685
0002b0 77 89 25 bf 22 83 a2 bc 5d e7 f0 bd 30 00 23 3e
       -0.6466288 -0.01983792 -0.11762879 0.1591804
0002c0 1a 8a 31 3e cc 4e 8b bd 16 f8 70 3e 56 0b 0f 3c
       0.17337838 -0.06802139 0.23532137 0.00873073
0002d0 01 c4 c4 bc 01 85 90 3e 1f 16 2b 3e 76 7c 13 be
       -0.024019243 0.28226474 0.16707657 -0.14402947
0002e0 10 fd d0 bd c0 88 41 bd 55 97 c8 bd e5 eb e0 bd
       -0.10204518 -0.047249556 -0.09794489 -0.10982493
0002f0 be 17 2d be 5e 10 b6 3d b2 6f 8c be fd e7 99 be
       -0.16903588 0.088898405 -0.27428967 -0.30059806
000300 f4 58 1d bf b3 bd b7 bd 37 d3 c5 3d 93 03 c9 be
       -0.61463857 -0.08971729 0.09659427 -0.3926054
000310 61 4e ef 3d 8f cf 9b 3d 29 eb bf bd a2 fd aa be
       0.116848715 0.07607948 -0.09371025 -0.3339663
000320 5d a4 e2 be 68 94 2f bd b8 c5 20 bf 9e d1 37 be
       -0.44266024 -0.04286614 -0.62801695 -0.17951056
000330 2f 27 49 3e cd 6a 1c 3e 2f 3d d9 3c c5 7d 8a 3e
       0.19643854 0.15275116 0.026518432 0.2704908
000340 46 89 dd be 65 06 08 be 7d e5 1e bf 6a 0d 1a be
       -0.43268794 -0.1328369 -0.6206892 -0.1504418
000350 ef 70 21 3e 7b 16 dd bb 12 3e 26 3e e9 cf 0a 3e
       0.15765737 -0.0067470646 0.16234615 0.13555874
000360 98 8f 16 3c 9c 49 f0 be 3a 6e bb be 84 d1 23 bf
       0.009189509 -0.4693116 -0.36607534 -0.6399157
000370 3c e3 bf be 80 a9 11 3d c8 93 1c bf 37 d7 91 bd
       -0.37478054 0.03556204 -0.61162996 -0.07121127
000380 0b a2 1a 3e c1 cd 92 bc 12 0a 18 3f 9c 6a a4 3e
       0.15100877 -0.017920377 0.59390366 0.32112586
000390 62 08 87 3e 08 bc 0e 3e 36 9e 5b 3e 5b 18 9f be
       0.26373583 0.13938916 0.21447071 -0.3107327
0003a0 68 cf 3d 3e 83 05 83 bc 1d ba b7 be fe a1 83 be
       0.1853615 -0.01599384 -0.3588418 -0.25709528
0003b0 bd 4e 82 3d 46 0f b0 3e 57 65 54 3e ef da 4c 3e
       0.063626744 0.34386653 0.20741783 0.20005392
0003c0 d0 5b b6 3e 4f 24 57 3e cb fc 42 be 8e d8 df 3e
       0.35616922 0.21009944 -0.19041745 0.43719906
0003d0 94 5e 5f be 94 bb c3 3e a4 f4 e7 be 44 df 99 bd
       -0.21813422 0.38229048 -0.45303833 -0.07513288
0003e0 14 b3 9c 3e 09 39 bd be bf 70 8f bd b6 ba 30 3e
       0.30605376 -0.36957577 -0.070039265 0.17258725
0003f0 08 8f 4f be 61 23 2e be ce f9 93 bd f9 39 ce 3d
       -0.20269406 -0.17005683 -0.07225381 0.10069651

encoder.2.bias f4 [32]
000000 3f 88 fa 3c 34 2f f7 3d 02 b1 6a 3e f3 f7 cc 3c
       0.030582545 0.1206955 0.22919086 0.025020575
000010 f5 a6 dd 3d b0 7b 2a bd a3 66 9c bc f2 92 4b 3e
       0.1082286 -0.041621864 -0.01909191 0.19880274
000020 d4 21 3c 3e 68 cc ee 3d 3f 0f 8f bd 00 79 c8 3d
       0.1837228 0.11660081 -0.0698533 0.09788704
000030 d5 7b fa 3c ce 15 e6 3d 9d c4 89 3d be 7c 75 3d
       0.030576626 0.11234628 0.06726954 0.059933417
000040 c9 77 31 bd 0b b0 32 3d 34 56 c9 3b a8 cb 4e 3a
       -0.043327127 0.04362492 0.0061443094 0.00078886235
000050 d2 b1 c5 bd 9b b3 43 3e 7f 30 e3 3d f7 14 b9 3d
       -0.09653057 0.19111483 0.11093234 0.09037202
000060 30 70 8c 3d 1e 47 1e 3e 9b 67 35 bd af 6e be bd
       0.068573356 0.15456817 -0.04428826 -0.09298455
000070 1c 71 cd bc d1 41 bf bb 34 e5 b5 bd f9 1e 72 3e
       -0.025078349 -0.0058367033 -0.08881608 0.23644628

encoder.4.weight f4 [64, 32, 3, 3]
000000 b0 fa 55 3c ba 24 2a be 63 8e c7 be 93 a8 aa bc
       0.013060257 -0.16615573 -0.3897582 -0.020832336
000010 d8 8c 8b bd a2 c6 e8 3c 53 6c 81 be 8c a1 1c 3d
       -0.06813973 0.028415028 -0.25277957 0.03824
000020 51 8b 47 3d c0 7b 40 3e 00 70 80 be 71 dc 93 3d
       0.048716847 0.18797207 -0.2508545 0.0721978
000030 d5 de a7 3d 1b 49 76 3b c2 f3 e0 bd 42 ce 90 bd
       0.08196799 0.0037580195 -0.10983993 -0.070705906
000040 4a 0c 41 bd dc d6 36 3d 10 bd 89 3d c6 29 54 3c
       -0.04713086 0.0446385 0.06725514 0.012949413
000050 20 5f ee 3d b0 53 a0 bd 5f 1c 5a be 4a 54 fb bb
       0.116392374 -0.07828462 -0.21299885 -0.00766996
000060 e9 41 0a 3d 44 39 2b 3e 5e 17 c3 3a 08 2f 63 3d
       0.033754263 0.16721064 0.0014884283 0.055464774
000070 a5 21 46 3d e9 08 20 bc 36 9d c4 be 23 12 3e 3b
       0.04837193 -0.009767749 -0.38401192 0.002900251
000080 e8 63 76 bd f5 35 01 be 7b c0 a0 3d 3d 79 cc 3d
       -0.06015387 -0.12618239 0.07849213 0.09984062
000090 40 0d 96 3d 27 33 94 bd 78 5c ec bd fa d0 b0 3d
       0.07326746 -0.07236319 -0.115410745 0.08633609
0000a0 dc 2a 80 3d c1 88 65 3b 72 bd 8d be 55 a5 84 3d
       0.06258175 0.0035024139 -0.27683598 0.06476847
0000b0 45 be 06 be e5 d0 59 3c a4 c3 c0 3c 2e 30 3d bd
       -0.1315852 0.013294433 0.023530789 -0.046188526
0000c0 9d 16 d8 3b 42 6a c9 3c c8 bf 18 bd 5d 75 72 bc
       0.0065944926 0.0245868 -0.03729227 -0.014798489
0000d0 eb eb dd 3b 4e 0a d7 3c 10 3f 51 be 2f e8 e1 bd
       0.0067725084 0.02625003 -0.20434213 -0.11030614
0000e0 5c 6c 75 3e 55 f1 1f bd cf 10 2d 3c 25 4a ec bd
       0.23967117 -0.03904851 0.0105630895 -0.115375794
0000f0 be 4b 2a 3e 42 f3 2a 3d 10 ab ee bc 52 22 01 3d
       0.16630456 0.041735895 -0.029134303 0.03152687
000100 c5 db e1 bd 45 79 54 3e 35 0c 44 3e ea 81 9d 3d
       -0.11028246 0.20749386 0.19145282 0.07690795
000110 db c7 fa 3d 22 43 30 3e 58 cc 3e bd c8 3c 21 3e
       0.12245151 0.17213109 -0.046581596 0.15745842
000120 64 97 6b be 30 9f 35 bd 14 e2 a4 bc 41 50 49 be
       -0.2300697 -0.044341266 -0.020127334 -0.1965952
000130 56 27 b7 3d 83 3f a9 bd 5b 41 59 3d 4b 3e 24 be
       0.089430496 -0.08264067 0.053040843 -0.16039388
000140 21 c0 1f 3e 94 c9 5d be 4e f7 4e be 50 0d 55 bd
       0.15600635 -0.21658927 -0.20211527 -0.05201465
000150 44 48 91 3c e4 d4 84 3e ad 14 89 3e b7 c4 54 3e
       0.017734654 0.25943673 0.26773587 0.20778166
000160 89 ad 13 3e c1 ea 35 be 88 9f 22 3c 63 a4 92 3b
       0.14421667 -0.17765333 0.0099257305 0.004475163
000170 18 9f e4 bd 2b df 8f be d6 00 1f 3e 08 ae 2e bd
       -0.11163157 -0.2809995 0.15527663 -0.042646438
000180 66 78 05 3e 7b 76 4f 3d 5c 56 46 bd 04 b6 d7 be
       0.1303421 0.0506501 -0.048422202 -0.42131054
000190 07 b1 a7 3d 28 2f bd bb 2a 43 4b 3c 50 13 b2 3d
       0.08188062 -0.0057734437 0.01240615 0.0869509
0001a0 eb 10 73 ba 17 5e 18 be 76 22 6a 3e 5b 17 ca bd
       -0.00092722353 -0.14879642 0.22864708 -0.09867736
0001b0 a4 34 8f be 24 0e 45 3d 9c 41 85 3b dd 19 fc bd
       -0.2796985 0.04810919 0.004066659 -0.123096205
0001c0 1d e6 81 bc ad 50 85 bb 37 a5 1f 3e 29 6a 47 3d
       -0.015856797 -0.004068455 0.15590368 0.048685227
0001d0 3a f6 7b 3e 84 28 3d 3e 89 59 29 be c4 01 f5 3d
       0.24605647 0.18472487 -0.16538061 0.119632274
0001e0 f6 87 21 be f3 f4 1b bd 25 ae 2f 3e 66 bf d2 3d
       -0.15774521 -0.0380754 0.17156275 0.102904126
0001f0 79 19 b2 3c 24 0d ab 3e 4d 61 ad bb 8e ad 42 bd
       0.021740662 0.33408463 -0.00529114 -0.047528796
000200 2f f8 01 bf 75 48 6c bb 6b 7b 8c 3d 7a f0 80 3d
       -0.50769323 -0.003605393 0.068594776 0.06295867
000210 ae b8 02 bf 04 7c 79 bd c8 52 f2 bc 15 8e bc bc
       -0.5106305 -0.060909286 -0.029580489 -0.023016969
000220 ef 8d 7e 3d 72 ee a7 bd 79 4a 05 bd eb 15 02 bd
       0.062147077 -0.08199777 -0.032541726 -0.031759184
000230 76 9c 47 3d b3 5b f6 bc c0 90 0d 3e 55 cb f3 3d
       0.048733197 -0.030073022 0.13824749 0.11904017
000240 27 19 03 3e 57 c2 ab 3d 20 6a 85 be 8e 4c 06 3d
       0.12802564 0.08386677 -0.2605753 0.032787852
000250 2e f7 96 3c f1 cf a2 be 9c e4 b0 bd 39 81 b2 bd
       0.018428411 -0.31799272 -0.08637354 -0.087160535
000260 f1 87 3f bd 0c 77 91 3e d1 17 34 3d 4c f6 2d 3d
       -0.046760503 0.28411138 0.043968026 0.042471215
000270 35 fd 21 be a3 90 cd bc 17 69 55 bd 21 f5 de bd
       -0.15819247 -0.025093382 -0.052102175 -0.108865984
000280 fe e3 8c 3d 3e fd 5a be be 2c 21 be 45 ed 3a be
       0.068794236 -0.21385667 -0.15739724 -0.18254574
000290 72 85 01 3e cd c5 65 3d 30 a6 18 be 16 41 34 bd
       0.12648562 0.05609684 -0.14907146 -0.044007383
0002a0 01 9f 4e 3e 52 a2 6b 3d 15 8d 1a 3e 18 ea 34 3e
       0.20177843 0.057527848 0.15092881 0.17667425
0002b0 05 25 03 bd aa c6 a1 bd df 62 a6 3d 3d 7a bb 3d
       -0.032017726 -0.0789922 0.08124327 0.091541745
0002c0 87 dd 62 be c6 c2 98 bd 4e 62 2e 3c e5 85 31 3e
       -0.22154818 -0.07459025 0.010643555 0.17336233
0002d0 70 4f 37 3c 9c bb 1b 3b aa 4d bc 3b 60 82 39 3c
       0.011188373 0.0023762947 0.005746563 0.011322588
0002e0 31 75 1b 3c a3 45 de bc 58 06 bd 3c d0 a6 ff 3a
       0.00948839 -0.027132815 0.023074314 0.001950467
0002f0 61 94 6b bc 2a b8 6e be 51 6b aa bd fe 19 26 be
       -0.014378638 -0.2331244 -0.0832125 -0.16220853
000300 1e 1c 71 bc 42 bb 78 bd f6 4a 7c 3e 7f db ec bd
       -0.014716176 -0.060725458 0.2463797 -0.11565303
000310 bc 1f 5b 3e 35 92 6d be 81 ce 52 be 55 48 ba bd
       0.21398824 -0.23200305 -0.20586587 -0.090958275
000320 bc 61 8d 3d 7c 9c 21 3e 1f 9c a6 bd 0c de 30 3e
       0.06903407 0.1578235 -0.081352465 0.17272204
000330 24 9b db ba 76 b5 3f bd ac 27 5b be 0b 98 12 3e
       -0.001675461 -0.046803914 -0.21401852 0.14315812
000340 16 05 91 bd 3c af 0e 3e 42 7a b4 3c b2 18 87 3c
       -0.07081048 0.13934034 0.022030953 0.016491268
000350 39 db e6 bd 9a 4d cb 3d 0a a6 09 3e 16 ab 83 3d
       -0.11272282 0.09926911 0.13442245 0.064291164
000360 ae 9b 8e 3e d9 16 b1 3d e6 34 2f be a6 64 bc bd
       0.2785315 0.08646936 -0.17110023 -0.09198885
000370 22 1a a4 3d 27 6d 49 be e3 71 57 3d cb a1 fc 3d
       0.08012797 -0.19670545 0.052598845 0.12335547
000380 d6 34 86 bc cb 64 96 bc e6 78 12 3e e9 8d 04 3e
       -0.016382616 -0.018358609 0.14303932 0.1294476
000390 ce f7 ee bd db 4a 67 be 96 1d 15 3e 10 d2 a2 bd
       -0.11668359 -0.22587149 0.14562067 -0.079502225
0003a0 ff 4f 43 3e 88 0d 45 3d 68 a5 07 3e f6 9c 49 3e
       0.19073485 0.048108608 0.13246691 0.19688782
0003b0 2c c1 61 be fe 61 32 3e 61 70 4b 3e 58 a3 22 bd
       -0.22046345 0.17420194 0.19867088 -0.039706558
0003c0 35 f8 d9 bc c8 89 37 3e 37 36 6f be d1 c6 7b bd
       -0.026607612 0.17923653 -0.23360525 -0.061468903
0003d0 42 a0 0a 3e 74 2a 1e be ef 15 83 be 87 66 88 be
       0.13537696 -0.15445882 -0.25602672 -0.26640722
0003e0 60 69 61 3d 72 02 db 3c f8 d8 00 3d 2e 57 a8 3d
       0.055032134 0.026734564 0.031456918 0.08219753
0003f0 da 26 72 bc 81 2a 39 3c 19 54 ce bc 92 da 41 bd
       -0.014779771 0.011301638 -0.025186585 -0.047327586

encoder.4.bias f4 [64]
000000 a2 19 1f 3d ff 9d 1e be 0a 21 60 bd b3 c0 1a 3c
       0.038842805 -0.15489958 -0.05471901 0.009445357
000010 a6 ea 2e 3e 03 8d 4f bd 5b 0d 84 bd 34 c2 c9 bc
       0.17081699 -0.05067159 -0.0644786 -0.024628736
000020 b4 5c 42 be b0 57 18 3d c6 a8 1c bd 22 aa 06 bd
       -0.18980676 0.037193 -0.038246892 -0.032877095
000030 ff 36 4e 3c 02 e0 3e be d6 4e a1 3d c8 fb ba 3c
       0.012586354 -0.1864014 0.07876365 0.022825137
000040 e3 c1 37 3c 6a eb d3 bd 9f b8 a9 bd 7c de a9 bd
       0.01121566 -0.10347636 -0.08287167 -0.08294389
000050 fd 6d e3 3d cc d3 5f bd 07 d7 03 be 6a 87 5b 3e
       0.11104963 -0.054645345 -0.12874995 0.21438375
000060 38 94 c1 3d c9 d2 8a 3c 57 0c 23 be 82 a5 7f bd
       0.094520986 0.016946213 -0.15922676 -0.0624137
000070 05 69 de bc 21 4c 5c 3e 6b 9b cd bc b9 1f 98 bd
       -0.027149687 0.21513416 -0.025098523 -0.074279256
000080 2c 33 47 be d2 bb 97 3c 21 c2 07 bd 34 f7 f3 bc
       -0.19453114 0.018522177 -0.03314412 -0.029780962
000090 20 91 93 bd b9 71 55 3d e2 b8 1b bd d0 3e 9e 3d
       -0.07205415 0.052110408 -0.038018115 0.07726824
0000a0 a5 42 aa bb 07 81 92 bd 10 8d e9 bc 85 94 09 bd
       -0.005195933 -0.07153516 -0.028509647 -0.033588905
0000b0 6c 34 09 be 30 ad 09 be 84 06 52 bc dc 48 09 bd
       -0.13398904 -0.13444972 -0.012818936 -0.03351675
0000c0 43 89 aa bd 08 33 5f bd db 55 99 3c 83 6e ef bc
       -0.08326962 -0.054492027 0.018717697 -0.0292275
0000d0 4b 37 6f 3e ca e6 09 3e a7 44 23 bd b6 2f 72 3c
       0.23360936 0.13466945 -0.039860394 0.014781883
0000e0 85 78 6b bd 0d 6e d3 bd 09 41 0b 3e ae bf 2e bd
       -0.057487983 -0.10323725 0.13599028 -0.04266327
0000f0 f9 66 e0 3d 5c a1 0b bd 0c 13 b7 bd d0 77 80 bd
       0.109571405 -0.03408943 -0.0893918 -0.062728524

encoder.7.weight f4 [2, 1024]
000000 4a eb ea 3c cf 71 b0 bc fc c7 79 3d d4 03 0a be
       0.028676648 -0.021538643 0.060981736 -0.13478023
000010 3a 42 34 3c d1 4d a5 bd 22 ca f4 bc a1 6b 28 be
       0.011002118 -0.08071483 -0.02988154 -0.16447307
000020 50 d9 ba 3d 3f ea 0e bd 4f 38 82 3d 7d ed 3b be
       0.0912348 -0.034891363 0.06358396 -0.18352313
000030 b1 bc b8 bc 9f 2f 85 3d b1 ef 96 bd 67 38 82 3d
       -0.022550913 0.06503224 -0.07369936 0.06358414
000040 f8 60 b9 3d 2a 35 6e bc b8 69 d7 3d 66 82 e5 bd
       0.090516984 -0.0145390425 0.10518211 -0.11206512
000050 8c 96 89 bc 52 fa 3e 3d 16 8d d1 3e 11 db 29 3e
       -0.01679542 0.046625443 0.40927953 0.16587473
000060 95 55 48 3e 02 ef 37 bd df f3 cd 3d 6b c7 85 be
       0.19563897 -0.04490567 0.1005628 -0.26128706
000070 c9 1d 04 bd 13 d0 b1 bc 6a fd 20 3e 49 03 03 3d
       -0.032254968 -0.021705663 0.1572167 0.031985555
000080 a1 b4 a9 3d 0c b0 cb bc 75 10 04 be 9c 84 94 bd
       0.08286405 -0.02486422 -0.12896903 -0.07251856
000090 c0 d5 53 bd ac dd 62 3f c2 8d 39 bd 23 a5 89 bd
       -0.05171752 0.88619494 -0.045301206 -0.067209505
0000a0 18 16 64 3d 16 ae 07 bc d2 f6 7f 3d 8f e9 b6 bd
       0.055685133 -0.008281251 0.062491246 -0.089312665
0000b0 b9 13 b6 3b 37 92 a5 bc 53 93 26 3e df 8d 33 bd
       0.0055565503 -0.020211322 0.16267137 -0.04383647
0000c0 ee c2 30 3b 8d 71 e6 3b 08 0f 4d 3c 17 41 a9 bb
       0.0026971656 0.0070325793 0.012515791 -0.00516523
0000d0 77 a3 ac 3a c9 58 e5 bb c6 9a 7d 37 43 48 06 3b
       0.0013171275 -0.0069991094 1.5116011e-05 0.0020489849
0000e0 d8 6e 8e bc 0f a0 71 3b c9 83 77 bb 32 d6 83 3c
       -0.017386839 0.0036869084 -0.003776776 0.016093347
0000f0 7c 58 0a 3c 98 ab fd bb 5e 2c 89 bc 0b ac b3 bb
       0.008443948 -0.007741403 -0.016744789 -0.0054831556
000100 79 41 11 3d 2d 18 94 bd da 40 7c be 0a bc 7d 3e
       0.03546283 -0.07231174 -0.24634114 0.24778762
000110 92 6d fc bd 24 ce 8e 3d b1 34 11 3e d1 dd 35 bc
       -0.123255864 0.06972912 0.14180256 -0.011100248
000120 0c 6e dc 3d 71 47 3f bd 10 4a b3 be 4d 9e 54 3e
       0.10763177 -0.04669899 -0.35017443 0.20763512
000130 9d 3b 2e 3c a5 7c a2 3d c9 fa 60 3c c5 d6 cf bd
       0.01063433 0.0793393 0.013731667 -0.10148386
000140 af 42 a3 be cc eb b7 bd 94 ce 9f 3e b2 dc ad bd
       -0.31886813 -0.089805216 0.31212294 -0.0848936
000150 eb ae 88 bd 81 65 f1 bd df f3 d7 be 21 17 e6 be
       -0.06673988 -0.117869385 -0.42178246 -0.4493952
000160 21 9f 05 be 06 d0 cd be 5f cb 19 3f 6e 38 03 bb
       -0.13048984 -0.40197772 0.60075945 -0.0020022648
000170 27 b7 d6 bd 9f 7a 9c 3c 03 8c 64 3e cc d7 cb bd
       -0.10484152 0.019101439 0.22319035 -0.09953269
000180 88 f3 66 bb 1e 57 f0 3c ca af 11 bd 1e 73 5e 3d
       -0.003524037 0.029338416 -0.035568036 0.054309003
000190 79 82 57 3c 60 e0 a6 3c a9 b9 db 3c 8a 6d 0e bd
       0.013153666 0.020370662 0.026821928 -0.034772433
0001a0 bd 79 92 3c 9f 0e 8e 3c e0 c3 c1 bc f3 c3 47 3c
       0.017880315 0.017340956 -0.02365297 0.012192714
0001b0 20 75 14 3c 1f b0 df 3c 52 3d 8b 3c 60 96 4a 3c
       0.009061128 0.02730566 0.016997013 0.012364954
0001c0 ff 05 cf bd 63 76 dc 3c 9c 1a f1 3c 6d cd 81 bc
       -0.101085655 0.02691192 0.029431634 -0.015845025
0001d0 97 ce 3a 3e f2 10 0d bd a6 f1 95 3c 38 1f 66 bd
       0.1824287 -0.03443999 0.018303704 -0.056182116
0001e0 24 fb 17 be 89 50 40 b8 44 b5 eb bd 69 6a 12 bd
       -0.14841896 -4.585137e-05 -0.11509183 -0.035746012
0001f0 ac a3 7f bd 0b 39 ea bc 87 08 75 bc c8 8d 27 3e
       -0.06241195 -0.028591653 -0.014955646 0.16362679
000200 c3 18 62 bc f4 b5 49 bc 19 ad 1e 3d 45 66 b8 bd
       -0.013799849 -0.012311447 0.038739298 -0.09003881
000210 ec 4f 6c 3d 88 af 5e be 49 8c 22 be c6 d6 41 3d
       0.057693407 -0.21746647 -0.15873827 0.047323965
000220 33 60 3d 3d 4c e7 2c 3e 7d 43 32 be 9a aa 99 3d
       0.04623432 0.16885108 -0.17408557 0.07503243
000230 6c a5 ad bd 9e 83 53 3d 17 8b 26 3d e9 ec eb 3d
       -0.08478817 0.05163919 0.04065999 0.115197964
000240 72 79 cb 3d b0 ee 91 bd d4 a9 2d 3d 20 62 83 3d
       0.09935273 -0.07125604 0.04239829 0.064152
000250 d1 a5 04 bd 80 7e 8c 3c ef 2c 01 3f 8b e2 16 bd
       -0.032384697 0.017150164 0.5045919 -0.036837142
000260 8a f3 05 bd 26 0f cc bd 9a d7 5b bd 30 b4 22 be
       -0.03270296 -0.09963827 -0.05367241 -0.15889049
000270 cc 0e c7 3c ad 4d 90 bd 03 c1 b5 be 7d 28 b0 3d
       0.024299048 -0.070460655 -0.3549882 0.086014725
000280 f9 22 5a bd f0 b8 0a be ae 6e 73 3e 10 e0 d1 bc
       -0.05325601 -0.1354711 0.2377269 -0.025619537
000290 cb 6a ee bc d9 c1 83 bc 0a bf d3 3d da 42 79 be
       -0.029103657 -0.016083645 0.10339172 -0.24341908
0002a0 e7 53 21 3e 40 6b 51 be 07 1c f1 3e d1 eb 00 3e
       0.15754662 -0.20451069 0.47091696 0.12589957
0002b0 3d 3a 04 3e 40 b3 cf bc 2b 13 8d bc ef 8b a0 3d
       0.12912841 -0.025354028 -0.017221054 0.0783919
0002c0 cb 9e 4e 3d cb ba 6d bb e4 8f e1 3c 6c 25 bb bc
       0.050444406 -0.0036274667 0.027534433 -0.022844993
0002d0 64 3d be 3d c7 73 dd bc c8 0b 8d 3b e2 78 85 3c
       0.09289053 -0.027032746 0.004304383 0.016292993
0002e0 9b 40 ab 3c c7 4d 26 3c bd b1 8f bc 84 bf f2 3c
       0.02090483 0.0101503795 -0.017540807 0.029632337
0002f0 79 af 02 3d 5e d4 a8 bc 6e a1 fb 3b 9c 51 30 bc
       0.031905625 -0.020609077 0.007679156 -0.010761645
000300 1f 3b 26 be 9e c4 89 bd 8d 66 67 3e 3e 88 2f 3e
       -0.1623349 -0.06726955 0.22597714 0.17141816
000310 2c 0d 43 be 26 7c 4f 3e cb 6e e6 bd e8 4c 4f 3d
       -0.19047993 0.20262203 -0.11251601 0.050610453
000320 24 ac cf 3e bd 16 21 3e 76 ef b5 3d ac 9d 14 be
       0.4056102 0.1573133 0.08883564 -0.14513272
000330 2f 06 b2 bd e0 0d 39 3e ac a7 2d be 71 76 98 3d
       -0.08692586 0.18071699 -0.16958493 0.07444466
000340 29 6e fa 3b dd 68 3c bc c9 c4 5b 3d 8a 67 43 3c
       0.0076425266 -0.011499611 0.053654466 0.011926541
000350 99 67 bc 3c 77 08 7a 3a 03 9c 30 bb 3f f4 02 bd
       0.022998618 0.00095380045 -0.002694846 -0.031971212
000360 4c 89 92 bc 37 22 62 3e 6a bc 6f 3e 68 5f ae bd
       -0.017887734 0.22083364 0.23411718 -0.08514291
000370 b0 d7 db 3b 4c ab 36 3b 84 85 a9 3c ab a2 fa bc
       0.0067090616 0.0027873097 0.020693548 -0.030595144
000380 47 c8 a1 bd 34 34 22 bd d2 f7 1b 3e d9 d8 cc 3c
       -0.07899528 -0.039600566 0.15231255 0.025005745
000390 0a c6 d9 bd d5 30 6e 3d af 5f d6 3d ef cf e2 bd
       -0.10633476 0.05815204 0.10467469 -0.110748164
0003a0 e0 c0 ec bd 2d 47 65 bc 84 fc f8 bd 32 35 01 be
       -0.115602255 -0.01399402 -0.121575385 -0.12617949
0003b0 d2 95 50 bc d8 c9 b4 bc 93 c1 de 3d 06 c6 ac 39
       -0.012731032 -0.022068903 0.10876765 0.00032953935
0003c0 c8 15 b1 3c e8 73 39 3b ec 7a da bb 11 5c f1 3c
       0.021616831 0.0028297845 -0.0066674855 0.029462846
0003d0 35 0e 8c 3d 62 ae 34 3b 7b 6d 10 bc d9 62 74 3d
       0.06838647 0.002756976 -0.008815165 0.05966458
0003e0 73 4e 17 be 31 d2 aa bd 0b 67 fa 3c e5 ae 5b bc
       -0.1477602 -0.08340872 0.030566713 -0.013408397
0003f0 71 f3 bc bb 4c 58 00 bd a0 86 17 3e 75 6c d1 3a
       -0.005766325 -0.031334206 0.14797449 0.0015977757

encoder.7.bias f4 [2]
000000 b0 6c 84 bc 7e 66 52 3d
       -0.016165107 0.051367275

decoder.0.weight f4 [64, 2]
000000 7f 63 0a 3e 01 79 a7 3e ce 13 16 bc 94 9f b8 bd
       0.13514517 0.32709506 -0.009159995 -0.09014812
000010 cd 49 8b bd 65 ce c9 3e 7d 61 82 3e c2 35 fd be
       -0.06801186 0.3941528 0.25465003 -0.49455076
000020 37 c3 b1 bd 86 00 8d 3d ee a1 d3 3e e4 7c b0 3e
       -0.086798124 0.068848655 0.4133448 0.34470284
000030 33 1b 06 bf c6 c2 66 3c 40 f1 5c be d1 c0 1f 3e
       -0.5238525 0.014084524 -0.21576405 0.15600897
000040 85 65 a7 3e 62 9d c6 3e 62 ad 4c 3c d5 54 33 3c
       0.3269464 0.3879195 0.01249251 0.0109455185
000050 32 f1 ce 3e 88 0c 11 bf 11 6d 8f 3e 59 63 bc 3e
       0.40418392 -0.56659746 0.280129 0.36794546
000060 53 cf bc 3e c8 56 e9 3e 1d 00 4c 3c 6b 89 30 be
       0.36876926 0.4557402 0.012451199 -0.17239921
000070 4c e6 b8 be f0 2b 6d be 80 1b 0f 3f 0e 00 cd 3e
       -0.36113203 -0.23161292 0.55901337 0.40039104
000080 e1 27 64 bb 33 02 8f 3b 7c 70 06 be e1 44 26 3d
       -0.0034813809 0.004364276 -0.13128847 0.04059303
000090 53 25 2d be 29 d3 9f be 26 75 90 3c 37 18 81 3e
       -0.1690877 -0.3121579 0.017633986 0.25213787
0000a0 f9 b2 81 3d 73 a5 25 bf 7e 4b 6d 3f 78 c7 8c be
       0.063329645 -0.6470558 0.92693317 -0.27495933
0000b0 24 1b 5a be cb 57 2d 3e 4f 64 84 3c 4c 6f 05 bf
       -0.21299416 0.16928022 0.016161112 -0.5212295
0000c0 4a 73 a2 3e 4b 24 5f be 26 97 1b 3e b5 0c e7 be
       0.31728584 -0.21791188 0.15194377 -0.45126882
0000d0 78 c4 2c 3f 09 00 b3 bd 9d a4 18 bf 15 d9 20 3e
       0.6748729 -0.08740241 -0.5962618 0.1570781
0000e0 a2 97 f1 3d 89 f1 cf 3e ab 2c 00 bf b5 92 1c bf
       0.117965 0.40613964 -0.5006816 -0.6116136
0000f0 16 89 87 3d 70 69 40 bf 59 01 c6 3b 40 ee 55 3c
       0.06617944 -0.75160885 0.006042641 0.0130572915
000100 75 1d 83 bd fe f2 3d 3e c9 6c 9a 3c 0d cc de bd
       -0.06402103 0.18549725 0.0188507 -0.10878763
000110 68 6f 63 3d ff db b1 3e 80 d4 d1 bc 0c d4 63 3e
       0.055526167 0.34738156 -0.025614023 0.22248858
000120 3d c4 08 bf b3 ef d0 3b 54 66 3d 3e 91 a1 3e be
       -0.53424436 0.0063762306 0.18496066 -0.1861632
000130 22 09 24 3b 52 9b 96 3c 75 e9 e4 3e c8 1f 09 3f
       0.0025029858 0.01838461 0.44709364 0.5356412
000140 23 7d e6 3e 69 4c 07 be 2e 47 a6 3e a8 9b 99 3a
       0.45017347 -0.13212742 0.3247618 0.0011719363
000150 40 79 b5 bc b6 9e 03 3d 3d 02 14 be e5 a7 e5 be
       -0.022152543 0.03213378 -0.14453979 -0.44854656
000160 83 45 59 be 85 85 0d 3f 71 3b 08 3f 73 15 ee 3d
       -0.21217923 0.5528186 0.532157 0.11625185
000170 e0 86 f8 3e 41 b6 24 bf 63 5c cb be df 96 08 3e
       0.485404 -0.643406 -0.39718923 0.13338803
000180 71 81 78 be dd b9 14 3e 26 f1 97 bd df 4f c1 3e
       -0.24268128 0.14524026 -0.07419042 0.3775625
000190 82 16 fb be 2c 5c c7 bd 7c a7 9c be 7d 41 9b 3c
       -0.4904061 -0.09734377 -0.3059653 0.018952126
0001a0 ab be 07 bd 1b 2b e8 3d 89 aa 95 3a 3b 0e 44 3d
       -0.03314082 0.11336347 0.0011418621 0.047865134
0001b0 88 80 b3 be 71 4d 69 3e 30 1e 63 bd db 9d 6f 3e
       -0.35059 0.22783448 -0.05544871 0.23400061
0001c0 e7 53 aa 3e ee a1 a7 be 7e 0c 02 3e f0 55 86 3d
       0.33267137 -0.3274073 0.12700078 0.0655936
0001d0 2b 6d af 3e ab 87 6a be 95 06 e8 bb 1a a0 a7 bc
       0.34262976 -0.22903316 -0.0070808628 -0.020462085
0001e0 bb a0 3a be dd 54 4c 3d 7d 28 c6 3e ff 73 86 3e
       -0.18225376 0.04988562 0.38702765 0.26260373
0001f0 ad 36 38 3e eb c5 e8 be 1e 44 6b 3e 2d b2 08 3c
       0.17989607 -0.454635 0.22975203 0.008343262

decoder.0.bias f4 [64]
000000 cc 82 9c 3e 18 64 ce 3e ef e5 c9 3d 97 b2 53 3e
       0.3056854 0.4031074 0.098583095 0.20673595
000010 5b 9c f5 3d 3a b1 81 3e 68 05 7a bf 93 44 a8 3e
       0.11992713 0.25330526 -0.976645 0.32864818
000020 b3 37 cd bf b5 0a 50 3e 81 e4 24 bf 02 97 27 be
       -1.6032623 0.20316584 -0.6441117 -0.16366199
000030 86 02 88 be e5 ca 51 3e 2b 69 39 bf ba 34 89 bf
       -0.26564425 0.20487554 -0.724261 -1.0719216
000040 28 25 3f bd f7 34 14 3f 5f 26 7c bd 01 46 b9 3c
       -0.046666294 0.5789332 -0.06156003 0.022616388
000050 16 20 88 be d9 65 c3 be 28 8e a6 3e 90 60 0a bf
       -0.2658698 -0.3816364 0.32530332 -0.5405359
000060 f1 f5 04 3f 10 32 31 bf 93 b5 bb bf de 68 af be
       0.51937777 -0.69217014 -1.4664787 -0.34259695
000070 61 45 28 bf b9 b0 c4 be 72 84 7a 3d c7 b2 1e 3f
       -0.65730864 -0.3841608 0.061161466 0.6199154
000080 a3 85 8e 3e 6d 03 73 3e 1f ac 8f bd 88 c3 06 be
       0.27836332 0.23731776 -0.07015251 -0.13160527
000090 93 93 5a bf d2 1d 16 3f 2a d2 f1 3e fa e5 0d bf
       -0.8538143 0.5863925 0.47230655 -0.5542904
0000a0 fe 9b b8 3d 71 0b 0a 3f b7 1d ba 3d 07 1c ae 3e
       0.09014128 0.5392371 0.09087699 0.34005758
0000b0 50 94 82 bf ea 76 86 3d b2 ba 4f be 6c 9d a5 bf
       -1.0201511 0.0656565 -0.20286062 -1.2938666
0000c0 76 f8 24 3f 42 a5 58 bf 02 6e 52 bf c6 41 1a bd
       0.6444162 -0.84627163 -0.8219911 -0.037660383
0000d0 ef e6 d5 3e bd 3d 68 3e 33 96 60 bf 79 16 3b 3e
       0.4177775 0.22679801 -0.87729186 0.18270291
0000e0 ba f4 6f 3e 91 96 2d 3f 7d fc 84 3e d1 91 52 3d
       0.234332 0.6780787 0.25973883 0.051408593
0000f0 87 ad 0b 3f 10 17 c8 3e 5e d7 56 3e 65 2f fb 3e
       0.54561657 0.39080095 0.20980594 0.49059597

decoder.2.weight f4 [128, 64]
000000 ee cd 12 3c ae c8 22 3d 63 00 4a 3c 82 ad 19 bd
       0.00896023 0.039742164 0.012329194 -0.037518986
000010 a9 80 55 3d de 26 1a 3d d0 d4 0b 3d d0 18 37 3d
       0.052124653 0.037634723 0.0341385 0.044701397
000020 84 6c ea bc 19 fe ef bd 0c e5 cd bc b2 15 2a 3d
       -0.028616197 -0.11718387 -0.025133632 0.041524597
000030 90 25 3c bd fd d5 a9 bd 41 61 78 bc a4 3b 99 3d
       -0.04593426 -0.08292768 -0.015159906 0.07482079
000040 ba bd 20 bd df 60 8a bd da 41 09 bd 06 59 d2 bd
       -0.039243437 -0.06756758 -0.033510067 -0.10270886
000050 74 1a 7c bd 46 b7 3d bd 3e af 21 3d 62 82 0a 3c
       -0.061548665 -0.04631736 0.039473765 0.008453937
000060 80 e1 9e bd 5a 78 b3 3d 9e c8 30 3d 21 27 40 3d
       -0.077578545 0.087631896 0.043160073 0.046912316
000070 bf 52 94 bd a9 ad 5b 3c 9d e1 e8 bd 4e 77 1b bc
       -0.07242345 0.013408103 -0.11371157 -0.009488894
000080 c9 49 ce bd aa f4 b3 bd 4b 56 3e 3d 93 e5 30 bd
       -0.10072667 -0.087869 0.046469014 -0.04318769
000090 f9 c1 9a bd 9f 12 08 3d 9c eb aa bd 29 10 17 3b
       -0.075565286 0.033220883 -0.0834572 0.0023050404
0000a0 04 94 ac bd 87 fc b0 bd bc 75 91 bc 93 9b ba bc
       -0.08426669 -0.08641916 -0.017756335 -0.022779262
0000b0 8b 26 10 bd 18 72 33 3d 75 01 8d bd 53 6a 03 bc
       -0.035193007 0.04380998 -0.068850435 -0.008020955
0000c0 66 5c 3b bd f0 1f 77 3d dd cf 92 bd 53 8c d9 bd
       -0.045742415 0.060333192 -0.07168553 -0.10622468
0000d0 d7 2a 2f 3d 29 89 e5 bd 60 d0 7f 3c 08 65 ac bd
       0.042765465 -0.11207802 0.015613645 -0.08417708
0000e0 01 62 aa bd 38 29 7a 3d 72 d7 b7 bd a7 dd 86 3c
       -0.08319474 0.061074466 -0.0897664 0.016463114
0000f0 c7 33 08 be 47 40 d3 bc e0 26 c0 3d 10 a5 b8 bd
       -0.13301001 -0.025787486 0.09382415 -0.09015858
000100 39 70 a4 3c 69 de be bc 2f b4 4d bb 0f 2d 6c bd
       0.020073043 -0.023299413 -0.0031387915 -0.05766016
000110 74 98 dd 3c bb ba 49 bd 34 b3 c0 bd 07 fd b8 bd
       0.027050234 -0.049250346 -0.0940918 -0.09032636
000120 67 ab 42 3d 94 db 68 3d 79 9a 34 3b 3b a7 91 3d
       0.047526743 0.05685003 0.0027557893 0.07111975
000130 33 3b a7 bd 33 53 82 3d 2e 78 ab bc 22 a7 5d bd
       -0.08165588 0.06363525 -0.02093133 -0.05411447
000140 8e 13 8f bd bb 7b 89 bc e5 92 40 3d 52 e7 98 bd
       -0.06986152 -0.016782632 0.04701509 -0.07465996
000150 f6 ce ae bd 10 84 38 bc bf 80 a8 bd a5 ef 29 bd
       -0.085355684 -0.011261955 -0.08227681 -0.04148831
000160 a2 5f 85 bd 5b 82 b8 3c 09 ed 72 bd c5 fa 28 bc
       -0.06512381 0.022523096 -0.059308086 -0.010313694
000170 c9 e4 4a bd e0 7e f6 3c 91 e0 fa bc e5 03 9f bd
       -0.049534593 0.030089796 -0.03062466 -0.07764415
000180 25 76 c2 bb 62 16 64 bd 3b c3 9c 3d 2e bb ac bd
       -0.005934494 -0.05568541 0.07654425 -0.08434139
000190 0a 49 85 bd 1f 47 a5 bc c0 fe 60 bd 89 e0 b7 3d
       -0.06508072 -0.020175515 -0.05493045 0.089783736
0001a0 21 da fb 3c ff 5c 52 bd 32 18 05 3d 58 54 f2 bc
       0.03074366 -0.05135822 0.032493778 -0.029581234
0001b0 c2 5a 7b 3c 20 74 0d 3c 66 5f 9a 3d 92 de 21 bd
       0.015341463 0.008633643 0.07537727 -0.0395189
0001c0 3c 87 a4 bd f2 cc 9c 3c 5c 45 c6 bc eb ee 8d bd
       -0.080336064 0.019140694 -0.024202995 -0.069303356
0001d0 81 a7 ed bc 2d f5 62 bd 2f e0 bb bd 58 4e c1 bb
       -0.029010536 -0.0554096 -0.09173619 -0.005899232
0001e0 e6 51 bc bb 00 e7 65 bd fe 0f 24 bd e9 28 e9 3c
       -0.0057470677 -0.056128502 -0.040054314 0.02846189
0001f0 40 02 95 bb 27 bd b0 3d 95 8c b9 bd 26 41 d8 3b
       -0.0045473874 0.08629828 -0.09060017 0.006599563
000200 29 46 4b 3c a5 be a3 3c 53 a0 d3 bc 08 01 18 bd
       0.012406864 0.019988367 -0.025833284 -0.03711036
000210 4f 06 92 3d 56 aa 81 3b 34 a3 25 3d 1c 76 63 bb
       0.071301095 0.003957073 0.040438846 -0.003470785
000220 67 4b 24 3d 8e a9 cb bd 34 bf 39 3c 7d 0a 4a bd
       0.04011097 -0.09944449 0.01133709 -0.04932641
000230 eb 9f c7 bd 21 c0 42 bd c7 6e 85 3d 65 89 ba bd
       -0.09747299 -0.04754651 0.0651527 -0.09108237
000240 45 f9 c5 bd a5 8a 77 3d a7 c7 b7 3b c3 11 5b 3c
       -0.09666685 0.060434956 0.005608517 0.013370934
000250 67 ee 8e bd 10 64 46 bd 7a e4 e2 3a 7e af 50 bd
       -0.069790654 -0.04843527 0.0017310523 -0.050948612
000260 1c ca d5 bd 7e 5c 1b bd 0c 32 cf bc 3b 42 34 bd
       -0.1043894 -0.037930004 -0.025292419 -0.044008475
000270 30 47 af 3c fc a6 33 3d 85 ce 6e 3c cc 43 45 bd
       0.02139625 0.04386042 0.014575605 -0.04816036
000280 f7 e1 95 bd c0 8f 94 3d 90 d2 76 3c 77 56 f0 bb
       -0.0731849 0.07253981 0.01506485 -0.007334526
000290 b9 a7 c9 bd 24 69 a5 3d 8f b5 21 3d 34 e5 2d bd
       -0.09846444 0.080766946 0.03947979 -0.042454913
0002a0 1a fa 97 bd ec 75 24 bd 9e a9 a5 3d 44 6d 9e bd
       -0.0742075 -0.04015152 0.080889925 -0.077356845
0002b0 51 76 c9 bd 92 60 74 bd 77 d9 86 bd ea fd 4a 3d
       -0.0983702 -0.05966241 -0.06584447 0.049558558
0002c0 ef 51 c4 bd 63 4b b2 bd 12 60 9b 3c 73 16 ec bc
       -0.0958594 -0.08705785 0.018966708 -0.028819298
0002d0 8f 32 78 bd 84 b7 c4 3c f6 0f 47 3d 2d ba c7 b7
       -0.06059509 0.024013288 0.048599206 -2.3809343e-05
0002e0 94 9b 1e bc 47 07 49 bc d5 65 90 bc fb 06 9e bd
       -0.009680647 -0.012269801 -0.017626682 -0.07716175
0002f0 fe 44 dd bc a5 4f 94 3d 93 ea a6 bd ea 2a e0 bb
       -0.027010437 0.072417535 -0.0815021 -0.0068410533
000300 8b b4 d2 bd 81 49 23 3e 95 9e bb 3d 19 d3 c9 bd
       -0.10288342 0.15946008 0.091611065 -0.09854717
000310 5f 41 14 3e 35 78 23 3e a5 8b 99 3e 64 fe 75 3e
       0.14478062 0.15963824 0.29989353 0.24022824
000320 5f cf d4 bd 7e 82 9f 3b c8 6d 94 be c8 81 c3 3c
       -0.103911154 0.004867851 -0.28990006 0.023865595
000330 35 28 11 bc 92 a1 18 3e a7 bb f6 3d b1 a5 c4 bc
       -0.008859684 0.14905384 0.120475106 -0.02400479
000340 f4 f8 01 3e cd c3 6c 3e d8 74 1b 3e 49 80 e7 3b
       0.12692624 0.23121567 0.15181291 0.0070648533
000350 46 a5 6d 3d b5 e0 07 be 20 87 8c be ee 91 37 be
       0.058018945 -0.13269313 -0.27446842 -0.17926762
000360 65 6a f7 bd 54 b0 50 be cc 0a 64 be ee 08 be be
       -0.1208084 -0.20379764 -0.22269744 -0.37116188
000370 0d 46 4e bd 4c 82 6a bd 7a eb da 3d 19 89 54 3e
       -0.050359774 -0.057253167 0.10689445 0.20755424
000380 34 ab a7 bd c6 c0 a0 3d e6 d7 b4 bc e0 f2 28 3b
       -0.08186951 0.078492686 -0.022075605 0.002577953
000390 f8 98 d9 3d ba 5b c4 3d ab dd 8b 3e 94 bc 63 bc
       0.106248796 0.09587808 0.27317557 -0.013899941
0003a0 0f 05 95 bd 4b 43 87 3d c6 3f 19 3d 1c 4d ea 3d
       -0.072763555 0.06604632 0.037414335 0.11440489
0003b0 d2 23 10 be ff c1 e1 3d 75 1d d9 bd 72 a1 37 bf
       -0.14076164 0.1102333 -0.106013216 -0.7173072
0003c0 dd aa 57 3d 12 d2 85 bd dd de 76 3e 8a 77 cb 3d
       0.052653182 -0.06534208 0.24108453 0.0993491
0003d0 f2 df 64 bd 55 c9 af 3c 6b f6 08 bf 69 fd 07 3d
       -0.055877633 0.021458307 -0.53501004 0.033200655
0003e0 20 c0 bc bd f3 21 28 3e c6 ca c4 bd fa 2e 34 3e
       -0.092163324 0.164192 -0.096089885 0.17596045
0003f0 6b 52 f8 bd 9b f9 5b 3d 0b 78 0f 3e 86 cf 64 3e
       -0.12125095 0.05370484 0.14010637 0.22344789

decoder.2.bias f4 [128]
000000 b2 9e 23 bd d4 d1 83 bd 98 3a 4b 3d 96 32 93 3e
       -0.039946266 -0.06436506 0.049616426 0.28749532
000010 9c 23 06 bd b6 27 11 3e 7d dd 5d 3d bf 8a 3b 3e
       -0.032748803 0.14175305 0.054166306 0.18314646
000020 da 57 8d 3c 81 4d 46 bd fe d1 fa 3d 5a 86 0e bc
       0.017253805 -0.048413757 0.12247084 -0.008699024
000030 de a4 da 3d af 5f 0c 3e 34 73 6a 3d 53 9a ae 3d
       0.10675977 0.13708375 0.057238773 0.08525529
000040 52 e6 06 bd cc 54 8f 3d bf bf 69 3e c0 8d 27 3e
       -0.032934494 0.069985956 0.22827052 0.16362667
000050 9d 6e a7 3e b0 95 c2 3d 67 1e 6c 3e b6 78 02 3e
       0.3270158 0.09501207 0.23058473 0.1274136
000060 d1 51 2f bd 0a c1 e0 3b 10 b2 d6 3d 64 c6 fe 3d
       -0.042802636 0.0068589495 0.104831815 0.12440184
000070 26 bf 02 bf 1d 8f b3 3c 0b 55 bf bd 19 77 f7 bd
       -0.5107292 0.021918828 -0.093423925 -0.12083263
000080 e2 89 45 3e 6a 77 b7 3d 9b 4d 5b 3d 90 a0 71 3e
       0.1929088 0.08958323 0.053540807 0.23596406
000090 7a 6f 50 3d d8 56 a2 3c 73 78 bc 3b 5c d0 77 3d
       0.050887562 0.019816801 0.0057516634 0.06050144
0000a0 fa 37 bb 3d 24 65 f7 3d 75 23 87 3d 57 2e 75 3e
       0.09141536 0.12079838 0.0659856 0.23943458
0000b0 20 b4 43 3e 4d d8 d4 bd d1 9d 16 3e 0a aa 03 bd
       0.19111681 -0.103928186 0.1470864 -0.032144584
0000c0 46 7b ec 3d 3b 84 ac bd c8 ec c5 bc 29 9d e6 3c
       0.1154695 -0.084236585 -0.024160758 0.028151112
0000d0 f8 ae 82 bc 79 d4 81 3b 6e 1e f4 bd bc d6 41 3d
       -0.015952572 0.0039620963 -0.119198665 0.047323927
0000e0 23 18 bb 3d ce 60 ef 3d cc db 1b bf f5 ce a6 3d
       0.09135463 0.11688386 -0.6088226 0.08144943
0000f0 b1 57 96 be f4 5e c7 3c f9 da 2d 3e 9d 77 21 3e
       -0.29363778 0.02433727 0.16978063 0.15768285
000100 ee 6b 46 be 11 51 42 3e 96 93 64 be 0b 51 cf 3d
       -0.1937711 0.18976237 -0.22321925 0.101228796
000110 fb 19 46 3e 8c 29 e0 3d 5a 93 c5 3d 72 85 04 3e
       0.19345848 0.109454244 0.09647246 0.1294153
000120 07 05 04 3e 6b ca 57 3e ce f7 d0 ba e6 d8 08 3e
       0.12892543 0.2107331 -0.0015942992 0.1336399
000130 02 73 48 bc e5 b6 a5 3d e9 87 06 3d 01 93 12 be
       -0.012234451 0.08091525 0.032844458 -0.1431389
000140 28 a5 93 bd 76 72 02 3e 52 48 21 3e 17 f4 20 3d
       -0.072092354 0.12738976 0.15750244 0.039295282
000150 e4 13 f7 bc 29 fd 2b 3e 6b 95 f7 bd 53 ff a9 3d
       -0.030160852 0.16795792 -0.12089046 0.08300652
000160 07 98 54 3e 4e 53 2c 3e 09 10 a9 bd bf 0b 14 3e
       0.20761119 0.16828653 -0.082550116 0.14457606
000170 d2 a1 9a 3d e2 f1 b4 3e 2f 23 a7 3d 55 d3 0a 3e
       0.07550396 0.35340792 0.081610076 0.1355718
000180 e7 93 bc bc 14 88 67 3e 1d f8 46 3e bf 63 48 bb
       -0.023019744 0.22610503 0.19430585 -0.0030577031
000190 d6 25 11 3d a0 a9 6c 3b fa 72 cc bc 31 b6 88 3d
       0.035436474 0.0036111847 -0.024957169 0.06675375
0001a0 52 45 8a bd 9c ef 1e bd 85 cc ea bd 9a 54 9f bd
       -0.06751503 -0.038802728 -0.1146479 -0.07779808
0001b0 1e f6 8a 3e eb 7d 14 3e 13 55 6b 3d 4e 43 1f be
       0.27140898 0.14501159 0.05745418 -0.15553018
0001c0 c3 6b 95 3b d9 3c 84 bd 7e 0d 66 3d c5 2a 1c 3d
       0.0045599653 -0.06456918 0.05616521 0.038126726
0001d0 02 0d 47 3d 86 54 9d be 08 92 98 3d 25 ca 89 3d
       0.04859639 -0.3072855 0.07449728 0.06728009
0001e0 40 ef 89 3d 5a 77 cc 3c a4 c4 a1 39 51 4b 83 3d
       0.067350864 0.024959255 0.00030854822 0.0641085
0001f0 02 5b d3 bc 07 65 a4 3d 04 23 a8 3e 8a 49 c7 bd
       -0.025800232 0.08027082 0.32839215 -0.09730823
